rps_model.pth (torch, 103597 bytes, 6 tensors)

net.0.weight f4 [128, 63]
00000000: 38ac 2abe 8e08 cebd 635b 553e 1939 643c
00000010: 4626 c3bd 34f1 65bc 39c7 843b 5c39 1abe
00000020: 188d 043d e0f2 ddbc 8733 febd d704 d6bd
00000030: f92b db3c ad04 ce3d d302 edbd cec7 bbbd
00000040: abb6 d8bd 3ba1 dcbc 0ca1 863c 294e 9d3d
00000050: d3d9 ca3d 9de8 f13d b53d 473d cdc0 ae3c
00000060: 9d02 a0bc 866a c8bc b10c 8e3d 0ead 1ebd
00000070: 4d8d 493d a058 f03c 2496 57bd bf8f ef3d
00000080: 471d 9dbd 874f 9dbd e408 ac3d 4034 f7bd
00000090: 5d89 383e 2aae 9f3d fa1a e3bd f684 72bd
000000a0: f311 70bc 62df 08bd 2097 05be abcb e33d
000000b0: 1b5c b0bd 4004 08bd 14f9 203d 0e7d 5ebc
000000c0: 81f1 603d d09a 2cbe f90d 7dbd ab91 e9bb
000000d0: 2fbb ec3d bd3f fabd c18c 633c 57ec 5fbd
000000e0: 72db 2dbe 8544 d73d 45a8 b0bd 7065 5bbe
000000f0: 3e27 c13d 0fb4 1ebe a97b 73be 5e32 babd
00000100: 614e 753d c54a cfbd 9a67 c53d 44d4 483d
00000110: 065d eb3d b679 ee3d ea7e e03d 6b5d a63d
00000120: e0c3 a4bd 6231 be3d 37d5 4e3d 6032 df3a
00000130: baba 133d 4e1f e4bd c5bd b53d 93c7 743d
00000140: b353 0e3c 50e1 4d3d d298 8ebd 3c56 e2bd
00000150: dd46 e8bd 9e68 18bd 6d14 11be 4642 16be
00000160: 656a 19be ce4e d3bd 9e5e 013e 1747 773c
00000170: 9037 1c3d f0fa b9bc cca0 bd3c 6faa 42bd
00000180: d102 7c3d 564a 09be 717d c3bd 5f0f 55bd
00000190: 530e 2abe 93b7 b8bd 1294 bc3c 10e7 d73d
000001a0: eea8 e8bc d9b6 933d 9d78 b03c 0860 35be
000001b0: 0930 ffbd 0847 48bd d624 b8bd 61b1 7ebd
000001c0: 34d4 09be 76c7 2a3e 85a8 fb3d db85 39bd
000001d0: dfa9 143b 5aba 033e bbda 773c 0d3a dbbd
000001e0: ca5e 1dbd 50d0 723a fbe9 653d e06c 443d
000001f0: 3e40 ae3d c66b 0a3e a499 5d3c d18d be3d
00000200: ca0b 42be 9dd8 7fbd 2957 d3bd 7754 d63d
00000210: e6d6 013e b9fb 073d cbad 74bd 0794 633d
00000220: 0a51 033e 0975 07be 7380 5dbd 7dcf 2d3e
00000230: 4528 d7bd eeea 103d 93e0 9a3d 09d5 683e
00000240: 2c7e 9c3d 48e6 493d 7bb5 f13b d698 5b3d
00000250: d5a8 f7bc 5202 e3bd 48a7 10be 16d0 453d
00000260: d528 3a3c b581 13bd d91d c1bd 4996 e93d
00000270: 4fe6 183e 834b 8c3d bf75 8cbd 3916 d9bd
00000280: 8142 8ebd 7cd8 9dbc d403 01be 9532 f2bd
00000290: a1ba 2fbb f278 8f3d e1a7 853d 8f60 033e
000002a0: f3bf b1bd 807a 88bd b1fd 16be e5c8 99bd
000002b0: 2e14 0bbe 38b3 7abd 183c 77bb a14e ccbd
000002c0: ff82 cf3d 8d79 b2bc ece3 1b3e 3997 30be
000002d0: 925f be3d 8f1e 4d3d 7ed8 45bc 0c52 21bd
000002e0: 6018 c33d b0f6 033e 3dab e9bd 3bb5 223d
000002f0: 4c85 7e3e 91de de3d 91d6 b53d dd91 f63d
00000300: 5c31 c6bd 026c edbd e096 ffbc d4e1 bd3d
00000310: fed6 d03d be3b c43d 29f2 7a3d ae3e 1ebd
00000320: 6474 f63c f1c0 4ebd 0ee0 2cbe 943b acbc
00000330: 3ca4 51bd 0985 58bd bf77 96bc 6938 98bc
00000340: ff6f c0bd 2c3e 623d 8735 afbd 10f9 0f3e
00000350: 3c37 443d c94d dbbd 093a ce3a e9ca e0bd
00000360: ec1d 7cbd 20da 19bd ade9 1d3c 41f4 57bc
00000370: 8921 cc3d 6866 073d 9d53 413c ba86 a03d
00000380: d095 55bd 90e2 d2bd efbf 0f3e 4be1 fbbd
00000390: e484 673c 015f 3b3c 36e5 0c3d 43c4 de3d
000003a0: c27b 143d f58b 1e3d ec82 073e 497a b43d
000003b0: 0a9d 06bd 06e1 22bd 207c 3b3e 11ae ae3d
000003c0: 3dec 573d 8fd5 a03d a02f 1cbe c55f 583d
000003d0: f433 433d bab8 b0bd 65f5 103d e07b 303d
000003e0: c9a1 a83b fc4e 83bd 5c59 1a3d dd52 49bd
000003f0: c3c7 fcbd a4d5 6cbd e62d f83d 2ae0 96bd
-0.16667259 -0.100602254 0.20835643 0.013929629 -0.095287845 -0.014034558 0.0040520695 -0.15060943
0.03236112 -0.02709335 -0.12412172 -0.10450142 0.026754366 0.100594856 -0.11572804 -0.09168969
-0.10581716 -0.02693235 0.016434215 0.076809235 0.09904828 0.118119456 0.048642833 0.021332169
-0.019532496 -0.024464857 0.069360144 -0.038739257 0.04920702 0.029339135 -0.05263342 0.11697339
-0.076716 -0.07681184 0.08400133 -0.12070513 0.1802115 0.07796891 -0.1108913 -0.059208833
-0.014652717 -0.03341616 -0.13045931 0.11122831 -0.08611318 -0.033207178 0.03930004 -0.01357962
0.054917816 -0.16855931 -0.061780903 -0.0071279607 0.1155914 -0.12219188 0.013888539 -0.05466875
-0.16978243 0.10511116 -0.08625845 -0.21425414 0.09431313 -0.15498374 -0.23777641 -0.09091638
0.0598892 -0.10121683 0.09638901 0.049030557 0.11492352 0.11644308 0.10961707 0.08123287
-0.08045173 0.09286763 0.050496306 0.0017028563 0.03606675 -0.111387834 0.08874086 0.05976064
0.008686948 0.050263703 -0.06962742 -0.11051604 -0.11341641 -0.037209146 -0.14167948 -0.14673719
-0.14981993 -0.10317765 0.1263375 0.015092633 0.038138926 -0.022702664 0.023147963 -0.04752582
0.061526123 -0.13407263 -0.095454104 -0.052016612 -0.16607027 -0.09019389 0.023019824 0.105421185
-0.028400864 0.0721261 0.021541888 -0.17712414 -0.12460334 -0.048895866 -0.08991401 -0.06218088
-0.13459855 0.16677651 0.12288002 -0.04529367 0.002268426 0.12864056 0.015127833 -0.10704432
-0.038420476 0.00092626084 0.056131344 0.047955394 0.08508347 0.13517675 0.0135254 0.09304393
-0.1894981 -0.062462438 -0.10319359 0.10465329 0.12679633 0.033199046 -0.059736054 0.05556109
0.12823883 -0.13228239 -0.054077577 0.16973682 -0.10505728 0.035380296 0.075623654 0.22737516
0.07641253 0.04929188 0.0073763705 0.053612553 -0.030231873 -0.11084427 -0.14126313 0.04829415
0.011362274 -0.03601237 -0.09429521 0.11405618 0.14931606 0.0685034 -0.06858396 -0.10599942
-0.06946278 -0.019268267 -0.12599117 -0.11826054 -0.002681412 0.0700549 0.06526161 0.12829803
-0.086791895 -0.0666399 -0.14745213 -0.07509021 -0.13581917 -0.061206073 -0.0037725028 -0.09975935
0.101324074 -0.021786476 0.15223664 -0.17245187 0.09295572 0.05007797 -0.012075542 -0.039384887
0.095261335 0.12887073 -0.11409614 0.039723616 0.24855536 0.10882295 0.08878816 0.1203954
-0.09677383 -0.115928665 -0.031199872 0.09271589 0.101972565 0.095817074 0.0612661 -0.038633995
0.030084796 -0.050476972 -0.16882345 -0.021024503 -0.051182017 -0.052861247 -0.018367646 -0.018581586
-0.093963616 0.055235073 -0.085551314 0.14059854 0.047904238 -0.10708196 0.0015733849 -0.10976202
-0.061551973 -0.037561536 0.009638232 -0.013180793 0.09967334 0.033056647 0.01179972 0.07838197
-0.052144825 -0.102971196 0.1403806 -0.122988306 0.014130805 0.011436225 0.03439828 0.10877278
0.036250837 0.038707692 0.13233536 0.088123865 -0.032864608 -0.03976538 0.18309069 0.08529294
0.05271553 0.07853233 -0.15252542 0.052825708 0.04765697 -0.08628984 0.035390276 0.043086886
0.0051462394 -0.064115494 0.037682876 -0.04915129 -0.12342789 -0.05782093 0.121181294 -0.07366975

net.0.bias f4 [128]
00000000: 1987 c83d c46a 893d 6523 e0bb d830 7c3d
00000010: 4ccc 803d 62b3 773d 9b70 9abd a623 5b3d
00000020: c0e2 63bd 5c83 0b3e 4867 53bd e2f5 933d
00000030: a63e 1dbe 3758 06bd a206 a3bd a4fa 193d
00000040: 0a40 bebd 3ebe b53d 6ca9 a6bc e0d2 b43d
00000050: d85e 113d c806 d23c caf2 2ebd a37f 8dbd
00000060: 1ece c23d f0a0 86bd 6b4e 36bd f762 ef3d
00000070: 38d6 1ebd 9005 35bd e08e 98bc b8d3 9f3d
00000080: a00e e83a 9408 be3d 57a3 283e f448 023e
00000090: 6203 a63d 2cca 9e3d e895 55bd b0a7 dbbc
000000a0: b53a babd e6dd 5bbc dfa9 cf3d 38cc 4dbd
000000b0: cc42 8e3d a4a1 e6bd dae1 853c b135 df3b
000000c0: c08b ed3c 954b c8bd 1129 e23d 7c02 d23c
000000d0: 38bb 083e cf32 853d 806c 3abe e420 933d
000000e0: 1bc5 6f3d 5818 e7bd f69f 5cbc e4a5 273d
000000f0: c431 dd3d e8d6 6e3d 0e06 a3bd 97ff a13c
00000100: 6aed 04bd 01f0 43bd f0a1 a4bb ea04 09be
00000110: 09c8 38be 6870 f7bb c60b 34bd 9575 293e
00000120: a2b6 be3d b299 2bbd b417 563d ae48 0bbd
00000130: b08d ccbd ced1 b53d e897 193e 27a6 06bd
00000140: d001 2e3c accc 79bd 1fc1 e0bc a83e 18be
00000150: a81d 2d3c ace5 74bd 306f df3d de7c f23d
00000160: dca6 183c 4cab 533d 48d9 f9bd 30f4 913d
00000170: f0bd 44bd d31f 40bd 1986 843d a931 e0bd
00000180: 1714 22bd 82d6 dc3d 12ac 96bd 6670 d13d
00000190: a450 1f3d a98c 94bd c1e3 33bc 8aee 50bd
000001a0: 2cdf 2e3e 4076 b1ba f57a a83d 0eb6 4b3d
000001b0: 838f 30bd 05c9 163e 4607 063d b8b1 a43d
000001c0: c404 923d 93dd 08be e0c5 ddbd c706 d9bd
000001d0: ea4a afbb 2b96 8bbd 51f5 adbd 7534 b93d
000001e0: 247d 8bbd e164 ab3b bb32 08be 2c8f c5bc
000001f0: e0fc 413c 828a e93d 33a0 473d 9882 3e3c
0.09791393 0.06709817 -0.006840157 0.06157002 0.062889665 0.060473807 -0.07541009 0.053500794
-0.055636168 0.13624328 -0.05161217 0.07224633 -0.1535593 -0.032798972 -0.079602495 0.037592545
-0.09289558 0.088741764 -0.020344459 0.08829284 0.03549084 0.025638 -0.04271201 -0.069091104
0.0951197 -0.06573665 -0.04450838 0.11688798 -0.038778514 -0.044194758 -0.018622816 0.07804054
0.0017704554 0.0927898 0.16468559 0.12723142 0.08106114 0.07753405 -0.052144915 -0.026813358
-0.09093229 -0.013419604 0.10139822 -0.050243586 0.06946334 -0.11261299 0.016343046 0.0068118204
0.028997302 -0.09780041 0.11042989 0.02563595 0.13352668 0.065038316 -0.18205452 0.07184008
0.058537584 -0.1128394 -0.013465872 0.04092969 0.10800508 0.05831042 -0.07960139 0.019775195
-0.03245298 -0.047836307 -0.0050241873 -0.13380781 -0.18045057 -0.0075512417 -0.04395654 0.1654876
0.09312178 -0.041894622 0.0522687 -0.03400486 -0.09987962 0.08877908 0.14999354 -0.0328733
0.010620549 -0.060986206 -0.027435837 -0.14867651 0.010566153 -0.059789345 0.10909879 0.11840223
0.009317126 0.051677033 -0.12199646 0.07126653 -0.0480327 -0.04690535 0.064708896 -0.10946972
-0.03956994 0.107831016 -0.073570386 0.102265164 0.038895264 -0.07253391 -0.010979594 -0.05100874
0.17077321 -0.001353927 0.08226577 0.049734168 -0.043105613 0.1472512 0.03272178 0.0804171
0.07129815 -0.13365774 -0.10828757 -0.10596996 -0.0053495066 -0.06815752 -0.08494056 0.090432085
-0.06810978 0.0052305316 -0.13300602 -0.024116121 0.011840075 0.114033714 0.048736762 0.011627816

net.3.weight f4 [128, 128]
00000000: 39cc 8bbc fa49 9e3c 221e 92bd 2f81 a03d
00000010: 869a 713d f0e7 343d 80fb afbc c088 f93c
00000020: 2aa6 283d eb9b 33bd 70a3 77bc 1886 77bd
00000030: 55a4 383d f26e 04bd c3af 90bd b598 b43d
00000040: f340 8a3d c854 8b3d 1bae 453d ecb6 5c3d
00000050: fa89 543d ba38 5f3d 0760 9dbd 22ae fcbb
00000060: 4ffd 51be 20bb 3ebd be6b cc3d b16e c83d
00000070: c50f a83d 9dc5 163c f5be 4fbd e93b 203d
00000080: 39dc 47bd fcf4 14be a501 a63d d218 1cbe
00000090: f83e 9d3c 7f29 febd b7f3 193d ac68 95bc
000000a0: 9c9a b4bd bd8a 283d 55c4 373d 9187 41bd
000000b0: a403 34bd 685b a6bd 3006 14be 12fc 46bd
000000c0: e612 9fbd cebd 3b3d 6801 15bd 272f a8bd
000000d0: 700a 92bd 07cc 15bc 11c3 163d 4764 893d
000000e0: ed02 903d 1101 80bd 9c90 a7bc f4b6 903c
000000f0: 0345 923d b112 b03a a008 44bd 3ff5 223e
00000100: b922 b13d 028d 05be 4b28 a83d 0256 643e
00000110: 4ab7 b33d bf2e d23d 9ea6 32bd 65d6 14be
00000120: 5d3a 58bd d6c6 043e c8dc 393c d8ed 22bc
00000130: 97fe 70bd a7c3 833d 6cd5 ab3d c1f6 5d3b
00000140: 0eb8 343d a0ed c8bc 5b23 983d 2726 d7bc
00000150: 1f02 a6bc ac2c a7bc 6061 b6bd fbed 1dbd
00000160: 4839 f13d 5dda 9ebd 029c 9a3d c3c9 343d
00000170: 48db 9a3d 0f63 f93d 8b8b 143d 8d63 17bd
00000180: 63d0 04be 2a60 e8bc 7881 e23c 7b7e 5cbc
00000190: 894b 913d 9cdc 013d 487b 2e3e 9a56 fe3d
000001a0: 80ef 38be c08b c9bc 34ff 1fbd aaa3 263d
000001b0: d4fc 0bbd 210c 58be f2b7 9a3d cbd3 9dbd
000001c0: e6e3 293c 2ced 4c3d a263 9cbd ce2a 843c
000001d0: fa57 e2bd 7563 093e 3c46 cd3c eefa 7abd
000001e0: d4e8 b2bc 95ee 063e 0c66 14bc 2798 b03d
000001f0: 4c98 343e a89e aebc 7247 9fbd 70e9 89bd
00000200: 9ca1 dbbd 1271 82bd 878b 03be 74f3 5a3d
00000210: 13c0 ae3d e9b5 11bd 7860 b13a 4970 773d
00000220: 1aab 2b3d c821 73bd 67d6 9f3d b0a3 93bd
00000230: af19 36bc e2a0 01be 1b94 35bd 076e ab3d
00000240: f94f 0d3e c019 3d3c 8f3f 1f3d 578c 053e
00000250: 0c17 57bd 4870 19bc ee26 6c3d 2931 e5bc
00000260: 6f2d 89bd f367 f23c 6eaa 893c fb7e 3ebc
00000270: 3826 393c 3e37 583d da3d 2f3d fb03 3a3e
00000280: 55da 0bbc 8c3a e8bc ffa9 a63d 325b eabd
00000290: 9f67 873d a65c efbd 2d7c 2ebc b257 6a3d
000002a0: d309 05be 4ee7 533c 93ca b23d 3cc4 e5bc
000002b0: f7b6 01be eeb7 6dbd 4dd9 47bd 8757 e0bc
000002c0: f0c4 aebc 0a27 643d 90b8 d83c 0851 35be
000002d0: 0e5d 37be 31f8 80bc 7ff1 4a3d 361d 693d
000002e0: aac0 9a3d 3a5b 2c3d 4e15 23bd b933 843d
000002f0: 3bd2 4c3d 6192 47bc 8044 dfba 115b c03d
00000300: 746b fc3c e5ac 91bd 0125 52bd f2ac 3f3e
00000310: 4e00 a83d e2f0 673d 984e 5d3c 25e6 03be
00000320: 8022 95ba 9192 613c 8e11 8abd 178e 8cbd
00000330: 2079 2d3b ef12 9a3d 17cd 253e fbe8 f1bd
00000340: 658f 9a3d a011 62bc f9c3 cabc b215 e2bc
00000350: dc19 1fbd e130 853d a028 dbbd 0b5a 833d
00000360: c127 1d3d 4dd5 13bc 6576 163e d2d4 6bbd
00000370: 37e2 c83c 6dd3 3f3e 1b82 693d be6b a93d
00000380: 216a 16be bee3 d43d 9650 5bbd 18c2 2f3e
00000390: 2a0a a0bd bdae 5f3d c49d 1c3c 8c21 db3d
000003a0: 0f65 cfbd d04d 543c ec33 68bd a819 853d
000003b0: f0b7 8f3c 1a98 59bd a175 8ebd 68be f53c
000003c0: 80e2 d3bd 8955 b63d 22f8 f7bc 8939 a93d
000003d0: af51 7cbb 77e3 52bc 50f5 ff3c 10dc 4dbe
000003e0: 2c72 edbc 0504 493e c6e6 e13d 211a 07bd
000003f0: 02ff 133e f6a4 2b3d f088 fc3c b43a 843c
-0.017065154 0.019322384 -0.07134654 0.0783714 0.058985256 0.044166505 -0.02148223 0.030460715
0.04117409 -0.043849867 -0.01511465 -0.060430616 0.045078594 -0.03233237 -0.07064774 0.08818189
0.06750669 0.0680328 0.048261743 0.053885385 0.051889397 0.054497458 -0.076843314 -0.007711188
-0.20506786 -0.046565175 0.09981488 0.09786738 0.08206133 0.009202388 -0.05071922 0.039119635
-0.048794005 -0.14546579 0.081057824 -0.15243843 0.019195065 -0.124102585 0.03758594 -0.018238388
-0.08818552 0.041147936 0.04486497 -0.047248427 -0.043948784 -0.08122903 -0.14455485 -0.048580237
-0.077672765 0.04583531 -0.036378294 -0.082121186 -0.07130897 -0.009142882 0.036807124 0.067085795
0.07031808 -0.062502034 -0.020454697 0.017665364 0.07142069 0.0013433305 -0.047859788 0.15913866
0.08649201 -0.13042071 0.0821081 0.22298434 0.08775194 0.10262822 -0.04361593 -0.1453491
-0.052790035 0.12966475 0.011344142 -0.009944402 -0.058836546 0.06433802 0.08390316 0.0033869
0.04412084 -0.02452737 0.074286185 -0.02626331 -0.020264683 -0.020407043 -0.089052916 -0.038557034
0.11778504 -0.07756493 0.075492874 0.044137727 0.07561356 0.12177097 0.03626589 -0.036960173
-0.12970118 -0.028366167 0.027649626 -0.01345789 0.07094485 0.03170453 0.17039216 0.12418862
-0.18060112 -0.02460277 -0.03906174 0.040683426 -0.034176663 -0.21098377 0.07554616 -0.07706412
0.010369277 0.050030872 -0.07636191 0.016133692 -0.110519364 0.13416846 0.025057904 -0.06127446
-0.021839537 0.1317695 -0.009057533 0.08622771 0.17636222 -0.021315888 -0.07777299 -0.06733978
-0.10724184 -0.06369223 -0.12846194 0.05345483 0.08532729 -0.035573874 0.0013532778 0.060409818
0.041911222 -0.05935839 0.07804566 -0.07208955 -0.011114522 -0.12659028 -0.044330698 0.083705954
0.13800038 0.011541784 0.038878974 0.13041817 -0.052512214 -0.009365149 0.057654314 -0.027977543
-0.06698119 0.029590582 0.0168049 -0.011626954 0.011300616 0.052787058 0.042783596 0.18165581
-0.008535941 -0.02834823 0.08137893 -0.114431754 0.06611561 -0.11687593 -0.010649723 0.05721254
-0.12992029 0.012933565 0.08730044 -0.028047673 -0.12667452 -0.058036737 -0.04879122 -0.027385486
-0.021334141 0.055701293 0.026455194 -0.17706692 -0.17906591 -0.015743347 0.049546715 0.056912623
0.07556279 0.042079188 -0.03981524 0.06455178 0.05000518 -0.012180896 -0.0017033964 0.093923695
0.030812956 -0.07113055 -0.05130482 0.18718317 0.08203183 0.056626208 0.013507508 -0.12880762
-0.001137808 0.013767854 -0.067416295 -0.06863039 0.0026469901 0.075231425 0.16191517 -0.118120156
0.075468816 -0.013798147 -0.02475165 -0.027598236 -0.03884302 0.065034635 -0.10701108 0.06413659
0.03836799 -0.009023023 0.14693601 -0.05757601 0.02452193 0.18732996 0.057008844 0.08272503
-0.14688922 0.10395001 -0.05354365 0.17163885 -0.07814439 0.054610003 0.009559099 0.10699758
-0.10126697 0.012958005 -0.05669014 0.06499034 0.017543763 -0.05312357 -0.0695603 0.02999802
-0.10345936 0.08903033 -0.030269686 0.08262927 -0.0038500836 -0.012871615 0.031244904 -0.20103478
-0.028985105 0.1963044 0.11030345 -0.032983903 0.14452747 0.041905366 0.030827016 0.016141273

net.3.bias f4 [128]
00000000: cce0 b0bd 449a 21bc c46b d93d 08e9 443d
00000010: a17d bb3d e630 6d3c 05d0 1bbd 082a 2c3b
00000020: cc59 c63d 39d1 c2bd 1a02 6b3d c73a c93d
00000030: cb50 0b3d b498 fa3c 91a1 bf3d f649 e9bb
00000040: f346 713d 4569 fd3d 2077 2c3c e1a0 46bd
00000050: 9d4d 7c3d f986 1c3d 043b f13c 62de 663d
00000060: f9d8 8c3c 3e68 793d f658 2cbd ee61 043e
00000070: 366f 133d 8ee3 15bd cca5 d33b 3267 783c
00000080: 1e28 c73d 3926 003d 9a18 683d 482f 8abd
00000090: 9eef aa3d 3d0c 13bc fac5 ff3c 4361 0c3e
000000a0: a38e 13bd 1a4b cebc 487f a5bd 6679 a13d
000000b0: e4a5 07bc 7155 10bd ae81 a5bd 7d98 05bc
000000c0: f0e9 0f3d dcca 90bd 8a4c b13d 9764 6b3d
000000d0: 0342 6d3c 6384 113d f7a1 a8bc 7896 523d
000000e0: 2c49 1dbd 5a20 8b3c af18 0a3e e400 6a3d
000000f0: 9997 563c 1aeb fcbc 72bc 11bc 3fb9 cf3d
00000100: 51cb b33c 7330 22bd 383e 6e3b ac71 213e
00000110: e7cd 693d bd84 84bd 9770 e63d 5b0c 3ebd
00000120: 66f7 953d f7dd ae3d 7b64 8fbc 6663 0a3e
00000130: 785a 353d 2c7b 623d 247d 6bbd e86f 9e3d
00000140: 8a86 e8bc 7028 bbbd 8be8 3a3d 9230 2d3d
00000150: 39bf b4bc 8b5e 9d3d 4797 c13d a2eb f03b
00000160: 0793 293d 335f ac3c 72f0 9f3d 1958 973c
00000170: 9c2e 073e c86b 90bd 7124 cd3d c291 8b3d
00000180: eb12 073e 97ca 223c 7dc0 24bd 15dc 203d
00000190: ce4e 44bc 8622 bd3c 2896 2c3d 4d36 9cbb
000001a0: f34f 793d aa7e 1b3c 0543 b03d 65af 3c3d
000001b0: 858f 563d 9e76 2dbd 5ab7 773d a7f0 f33a
000001c0: ec92 e13d 1f3a 49bc 7c12 2e3d e8d1 88bd
000001d0: ee0a a8bd 4836 88bc fdd1 cd3c a608 1139
000001e0: eb53 2f3d 8c47 52bd dc62 b2bd 85d8 b1bd
000001f0: 6163 ab3c 2a32 023c 929b c23d d42a bc3c
-0.086366266 -0.00986344 0.10616258 0.0480738 0.09154821 0.01447699 -0.03804018 0.002627017
0.09685096 -0.09512562 0.05737505 0.09825664 0.034012597 0.030590393 0.09356988 -0.0071194125
0.058905553 0.12373594 0.0105264485 -0.04849327 0.061597455 0.038214657 0.029447086 0.056364425
0.017193304 0.06089043 -0.042077027 0.12927982 0.03599473 -0.036593966 0.0064589735 0.015161322
0.097244486 0.031286452 0.056664087 -0.067472994 0.083464846 -0.008975086 0.031222332 0.13708977
-0.0360247 -0.025182296 -0.080809176 0.07884483 -0.0082792975 -0.035237733 -0.08081375 -0.008154032
0.03513521 -0.07069942 0.08657177 0.057468977 0.01448107 0.035526644 -0.020585043 0.05141303
-0.03839986 0.0169832 0.13485979 0.057129756 0.013097667 -0.030873824 -0.0088950265 0.10142755
0.021947535 -0.039596986 0.0036353003 0.15766019 0.05708113 -0.0647063 0.112519436 -0.0463985
0.07322578 0.0853843 -0.017503968 0.1351448 0.04427573 0.055293247 -0.05749239 0.07736188
-0.028384466 -0.09138572 0.045631927 0.04228265 -0.022063838 0.07684048 0.09452682 0.0073523084
0.04139998 0.021041488 0.07809533 0.018474625 0.13201374 -0.07051808 0.10016716 0.068149105
0.1319081 0.0099359965 -0.040222634 0.039272387 -0.011981679 0.023087751 0.042135388 -0.0047672153
0.06086726 0.009490648 0.08606533 0.046065707 0.052382965 -0.04234945 0.060477592 0.0018611149
0.11014351 -0.012281924 0.042498097 -0.066806614 -0.0820521 -0.016627446 0.025124544 0.000138315
0.04280464 -0.051337764 -0.08710262 -0.08683876 0.020921411 0.00794653 0.09502329 0.02296964

net.6.weight f4 [3, 128]
00000000: 5ab2 17be db02 0ebe 6925 47be e9d5 8dbd
00000010: 442f 61be 72e4 8dbd 1ab8 0f3d b7e7 463e
00000020: 9d89 523e 0b80 ddbc 6f65 73be ba9f 87be
00000030: e8aa 5bbe 28da 22be 73c5 20bd 2138 173c
00000040: b9da 77be d147 ca3d 015e 2abe 0be1 61be
00000050: fd34 65be d1b9 82be 58b6 08be 24fe ae3c
00000060: 3c7f 2a3e c231 623d 72d4 42bd 3e3e 58be
00000070: e8c9 883d 0d57 933c edf0 623e 0771 d93d
00000080: e52b 55bd c15e 15be a642 b33d 941e 39bd
00000090: 4f46 013e 7cb7 db3d 1063 57be 87f7 31be
000000a0: c19d 073e bbdb 36be e21b c9bd 9182 50be
000000b0: 3eeb bb3d 754d c6bd 4ec4 91bd d091 573d
000000c0: ccbd 4bbe 0e93 28bd 2abf 373e feb1 8f3d
000000d0: 6b0b a73d 258c 67be 3dcd 8cbd 7a9b 173e
000000e0: 6ad4 53be 8817 d6bc 7c56 143e 8c22 70be
000000f0: 1995 5abe dc97 a53d 40e9 32be 1d76 093e
00000100: b112 b8bd a4f3 4f3e 8500 4d3e 1b64 1cbd
00000110: 6ea3 2e3e b828 1d3d bc3a 29be f3a3 753e
00000120: acd0 363e 1aba 683d 2507 34be 527f e1bd
00000130: 527c 183d cd63 533e 7b02 e33c 39e8 7cbe
00000140: 066f 773c 0b83 013e 0f51 f3bc 7790 81be
00000150: eb9b f3bd fef5 38be 442f 4cbe 474a 08be
00000160: cc56 e83d 0cef d73d 22a8 afbc 2fa2 263e
00000170: b7d0 53be fd04 ca3d b4f6 51be 4947 7abe
00000180: 4af4 89bd d9da 163e 6006 453e 5469 35be
00000190: edde f73d d8fd d53d f7f0 993d 1f0a 553c
000001a0: 6e6e 043e 8c54 f1ba ea58 bebd 523b 343e
000001b0: 6513 013e dbf2 553e 2a6e 623d 88aa 033e
000001c0: 5c90 803d 5ce5 353d d653 89bd 2cd4 0f3e
000001d0: feee 153e fec6 b9b9 8074 9d3d 38af d33d
000001e0: 4940 083d 4e0b f33d 947e 85bd b472 f93c
000001f0: 1f7e 5a3e 1635 373e daf4 2fbe 2721 e73d
00000200: e8df 303e ac72 2e3e dc84 c23c d1c1 5dbe
00000210: 3f65 d93d 248e 01be 58d1 483e 8f06 43bd
00000220: f532 edbd f0d8 20bd 7f5e 0a3e 0f0e 813d
00000230: f529 383c beb1 403e dee5 5ebe e88a 373e
00000240: 88ea c63d b3f8 4ebe ce4c 063e a297 073e
00000250: 4e79 67bd aeb5 253e 1595 5d3e f175 4dbe
00000260: b260 aebd 355c 5abe ec5b 1e3e 286a bbbd
00000270: 8052 6c3d 8452 823d 92b2 a0bd 4718 11be
00000280: 5ba8 11be 732a b6bd f2dd 37be 4f1b b2bc
00000290: d00e f1bd 56a9 11bd c702 bcbd 7a3f ccbb
000002a0: a609 51be f7b1 293e 013b 543e 6b82 ce3d
000002b0: 32a4 4dbe 97d3 333e 6921 20bd 3b76 1c3e
000002c0: e9fb 863d 682b 683e aae8 15be fe56 49be
000002d0: b702 523d 4e9b 113e eccb 32be e122 e93d
000002e0: d599 d53d 7f34 4b3e 47d2 00be ae48 bd3d
000002f0: 9917 ff3d 988f 63be 8442 0bbe 3c34 37be
00000300: 75cb 5d3e f1aa 38be f196 403d 7efa 3bbd
00000310: 0851 f7bd 2d19 3d3e cb4a 0f3e 4819 40bd
00000320: 2a53 49be 711d 6ebe ddd3 403e d9c1 ba3d
00000330: ccf1 a53d f22e 9cbd e2f7 413e 09ab 9a3d
00000340: 3694 e1bb de54 153e 7cbc 093e 1496 083d
00000350: 3c11 243e a7b6 213e 7b21 e73d afd9 bb3d
00000360: 111f 2dbe 1dfc f0bd a930 183e 31ec cabd
00000370: bfd1 b639 026e b5bb 9482 243e e592 e03d
00000380: 4dfd 53be 99c7 adbd 8fea 833d ddeb 153e
00000390: fedf c03d 1f8b 3cbe a844 47be 9992 3cbe
000003a0: 512e a93d d119 4f3e d72c 8ebd 16d1 ed3c
000003b0: a3ce 8f3d ae79 cabd 6ced 9a3d 267a 40be
000003c0: 2e5c 46be f590 02be 91e3 673e dade 19bd
000003d0: 8f35 b93c 0812 6b3e 708d e0bd a783 37be
000003e0: 824e 263e 56ce 1f3e 9fce 8d3d 2ec6 86bd
000003f0: 2fa5 f3bc 195f 13be 95ce 303d 79eb 5bbe
-0.1481413 -0.13868277 -0.19447865 -0.06925566 -0.21990687 -0.06928338 0.035087682 0.1942433
0.20560308 -0.027038595 -0.23769163 -0.2648905 -0.21451914 -0.15903533 -0.039250802 0.009229691
-0.2420453 0.09876979 -0.16637422 -0.22058503 -0.22383495 -0.25532392 -0.13350809 0.021361418
0.16650099 0.055223234 -0.047565885 -0.21117494 0.066791356 0.017985845 0.22162218 0.106172614
-0.052043814 -0.14586927 0.087529466 -0.045195177 0.12624477 0.10728356 -0.21033883 -0.1737958
0.13243772 -0.17857258 -0.09819771 -0.20362307 0.09175728 -0.096827425 -0.0711752 0.052629292
-0.1989662 -0.041155867 0.17944017 0.07016371 0.08156475 -0.22612055 -0.068750836 0.14805403
-0.20686498 -0.026134267 0.14486116 -0.23450679 -0.21345939 0.080856055 -0.1747179 0.13423963
-0.0898794 0.20307785 0.2001973 -0.038181406 0.17054531 0.03836891 -0.16526312 0.23988323
0.1785304 0.056818105 -0.1758085 -0.110106125 0.037227936 0.2064354 0.027711144 -0.24697961
0.015102154 0.12647645 -0.029701738 -0.2530553 -0.11894973 -0.18062589 -0.19939905 -0.13309585
0.1134468 0.105436414 -0.021442477 0.16272806 -0.20685087 0.09864233 -0.20504266 -0.24441256
-0.067360476 0.14731921 0.19240713 -0.1771596 0.121030666 0.104488075 0.075166635 0.013002901
0.1293275 -0.0018412038 -0.09294303 0.17600754 0.12605055 0.20893423 0.055280842 0.12858021
0.06277534 0.044408187 -0.067054436 0.14045781 0.1464195 -0.0003543421 0.07688236 0.10336155
0.033264432 0.118673906 -0.065182835 0.030450203 0.21337174 0.17891344 -0.17183247 0.1128562
0.17272913 0.17035931 0.023744993 -0.21655966 0.10615014 -0.12651879 0.19611108 -0.047613677
-0.11581985 -0.039269388 0.1351261 0.063015096 0.011240472 0.18817803 -0.21767375 0.17924082
0.09712702 -0.20212059 0.13115236 0.13241437 -0.05651217 0.16182587 0.21638902 -0.20064522
-0.08514537 -0.21324237 0.15464753 -0.09151107 0.057695866 0.06363395 -0.078465596 -0.14169417
-0.14224379 -0.08894815 -0.17955759 -0.021741537 -0.117704034 -0.035561882 -0.09180217 -0.006233153
-0.20413837 0.16571794 0.20725633 0.10083469 -0.20082167 0.17561184 -0.039094362 0.15279476
0.06591017 0.22672808 -0.14639536 -0.19662091 0.05127212 0.142194 -0.17460603 0.11383606
0.10429732 0.19844244 -0.12580214 0.09242378 0.12455673 -0.22222745 -0.13599592 -0.1789102
0.21659644 -0.18033959 0.04701895 -0.045893185 -0.12076002 0.18466635 0.13993375 -0.04689911
-0.19660631 -0.23253419 0.1883082 0.09119005 0.0810276 -0.076261416 0.18942216 0.075521536
-0.006884123 0.14583156 0.13450807 0.03334625 0.160222 0.15792333 0.11285683 0.09172379
-0.16906382 -0.11766837 0.14862312 -0.09908331 0.00034870018 -0.0055367956 0.16065437 0.10965518
-0.20702095 -0.08485336 0.06441223 0.14640756 0.09417723 -0.18412445 -0.19459784 -0.18415298
0.08260787 0.20224692 -0.06942146 0.029030364 0.07021835 -0.0988649 0.07564816 -0.18796596
-0.19371101 -0.12750609 0.22645403 -0.037566043 0.022608547 0.22956097 -0.10964477 -0.17921315
0.16240886 0.15606055 0.069241755 -0.065807685 -0.029741852 -0.14391746 0.043165762 -0.21476544

net.6.bias f4 [3]
00000000: 27c0 42bd 9a2a a1bd 47e3 813b
-0.047546532 -0.07869454 0.003963861
